…
    momentum: 0.9
scheduler:
  num: 1
  scheduler0:
    name: MultiStepLR
    parameters:
      milestones: [45, 65]
      gamma: 0.1
dataset:
  name: CIFAR10
  batch_size: 128
  split:
    train: 0.9
    valid: 0.1
    test: 1.0
train:
  epochs: 90
  device: cuda:0
  save_path: ./checkpoints/shilu/cifar10/
  log_path: ./logs/shilu/cifar10/
  seed: 42
  save_every: 10
test:
  device: cuda:0
  checkpoint: ./checkpoints/shilu/cifar10/
  log_path: ./logs/shilu/cifar10/
  seed: 42
2024-12-13 00:22:06,577 | INFO | 
ResNet8WithConvMixerEmbedding(
  Patch Embedding: ConvMixerPatchEmbedding(
  (patch_embedding): Conv2d(3, 16, kernel_size=(1, 1), stride=(1, 1), bias=False)
  (bn): BatchNorm2d(16, eps=1e-05, momentum=0.1, affine=True, track_running_stats=True)
  (blocks): Sequential(
    (0): ConvMixerBlock(
      (depthwise_conv): Conv2d(16, 16, kernel_size=(3, 3), stride=(1, 1), padding=(1, 1), groups=16)
      (bn1): BatchNorm2d(16, eps=1e-05, momentum=0.1, affine=True, track_running_stats=True)
      (pointwise_conv): Conv2d(16, 16, kernel_size=(1, 1), stride=(1, 1))
      (activation1): ShiLU()
      (activation2): ShiLU()
      (bn2): BatchNorm2d(16, eps=1e-05, momentum=0.1, affine=True, track_running_stats=True)
    )
    (1): ConvMixerBlock(
      (depthwise_conv): Conv2d(16, 16, kernel_size=(3, 3), stride=(1, 1), padding=(1, 1), groups=16)
      (bn1): BatchNorm2d(16, eps=1e-05, momentum=0.1, affine=True, track_running_stats=True)
      (pointwise_conv): Conv2d(16, 16, kernel_size=(1, 1), stride=(1, 1))
      (activation1): ShiLU()
      (activation2): ShiLU()
      (bn2): BatchNorm2d(16, eps=1e-05, momentum=0.1, affine=True, track_running_stats=True)
    )
    (2): ConvMixerBlock(
      (depthwise_conv): Conv2d(16, 16, kernel_size=(3, 3), stride=(1, 1), padding=(1, 1), groups=16)
      (bn1): BatchNorm2d(16, eps=1e-05, momentum=0.1, affine=True, track_running_stats=True)
      (pointwise_conv): Conv2d(16, 16, kernel_size=(1, 1), stride=(1, 1))
      (activation1): ShiLU()
      (activation2): ShiLU()
      (bn2): BatchNorm2d(16, eps=1e-05, momentum=0.1, affine=True, track_running_stats=True)
    )
    (3): ConvMixerBlock(
      (depthwise_conv): Conv2d(16, 16, kernel_size=(3, 3), stride=(1, 1), padding=(1, 1), groups=16)
      (bn1): BatchNorm2d(16, eps=1e-05, momentum=0.1, affine=True, track_running_stats=True)
      (pointwise_conv): Conv2d(16, 16, kernel_size=(1, 1), stride=(1, 1))
      (activation1): ShiLU()
      (activation2): ShiLU()
      (bn2): BatchNorm2d(16, eps=1e-05, momentum=0.1, affine=True, track_running_stats=True)
    )
  )
)
  ResNet Model: ResNetCifar(
  (conv1): Identity()
  (layer1): Sequential(
    (0): BasicBlockCifar(
      (conv1): Conv2d(16, 16, kernel_size=(3, 3), stride=(1, 1), padding=(1, 1), bias=False)
      (bn1): BatchNorm2d(16, eps=1e-05, momentum=0.1, affine=True, track_running_stats=True)
      (conv2): Conv2d(16, 16, kernel_size=(3, 3), stride=(1, 1), padding=(1, 1), bias=False)
      (bn2): BatchNorm2d(16, eps=1e-05, momentum=0.1, affine=True, track_running_stats=True)
      (shortcut): Sequential()
      (relu): ShiLU()
    )
  )
  (layer2): Sequential(
    (0): BasicBlockCifar(
      (conv1): Conv2d(16, 32, kernel_size=(3, 3), stride=(2, 2), padding=(1, 1), bias=False)
      (bn1): BatchNorm2d(32, eps=1e-05, momentum=0.1, affine=True, track_running_stats=True)
      (conv2): Conv2d(32, 32, kernel_size=(3, 3), stride=(1, 1), padding=(1, 1), bias=False)
      (bn2): BatchNorm2d(32, eps=1e-05, momentum=0.1, affine=True, track_running_stats=True)
      (shortcut): LambdaLayerCifar()
      (relu): ShiLU()
    )
  )
  (layer3): Sequential(
    (0): BasicBlockCifar(
      (conv1): Conv2d(32, 64, kernel_size=(3, 3), stride=(2, 2), padding=(1, 1), bias=False)
      (bn1): BatchNorm2d(64, eps=1e-05, momentum=0.1, affine=True, track_running_stats=True)
      (conv2): Conv2d(64, 64, kernel_size=(3, 3), stride=(1, 1), padding=(1, 1), bias=False)
      (bn2): BatchNorm2d(64, eps=1e-05, momentum=0.1, affine=True, track_running_stats=True)
      (shortcut): LambdaLayerCifar()
      (relu): ShiLU()
    )
  )
  (fc): Linear(in_features=64, out_features=10, bias=True)
  (relu): ShiLU()
)
)
2024-12-13 00:22:06,582 | INFO | 
CrossEntropyLoss()
2024-12-13 00:22:10,674 | INFO | cuda:0 ckpt: ./checkpoints/shilu/cifar10/resnet8withconvmixerembedding/ep=10_lv=0.74.pth test_loss: 0.7110 test_accuracy: 0.752 test_precision: 0.781 test_recall: 0.752 test_f1: 0.752
2024-12-13 00:22:13,563 | INFO | cuda:0 ckpt: ./checkpoints/shilu/cifar10/resnet8withconvmixerembedding/ep=12_lv=0.63.pth test_loss: 0.6195 test_accuracy: 0.792 test_precision: 0.808 test_recall: 0.792 test_f1: 0.792
…
